Model: "sequential"
_________________________________________________________________
 Layer (type)                Output Shape              Param #
=================================================================
 conv2d (Conv2D)             (None, 254, 254, 8)       224
 conv2d_1 (Conv2D)           (None, 252, 252, 16)      1168
 max_pooling2d (MaxPooling2D  (None, 126, 126, 16)     0
 )
 flatten (Flatten)           (None, 254016)            0
 dense (Dense)               (None, 128)               32514176
 dense_1 (Dense)             (None, 64)                8256
 dense_2 (Dense)             (None, 5)                 325
=================================================================
Total params: 32,524,149
Trainable params: 32,524,149
Non-trainable params: 0
_________________________________________________________________
Epoch 1/10
Traceback (most recent call last):
  File "/Users/rocker/miniforge3/envs/dl-lab-22w-team06/lib/python3.8/site-packages/keras/utils/traceback_utils.py", line 70, in error_handler
    raise e.with_traceback(filtered_tb) from None
…
