…
I1209 16:50:51.570533 140661183817536 main.py:44] Start the training process...
I1209 16:50:51.582285 140661183817536 train.py:68] <PrefetchDataset element_spec=(TensorSpec(shape=(None, 256, 256, 3), dtype=tf.float32, name=None), TensorSpec(shape=(None,), dtype=tf.int64, name=None))>
I1209 16:50:51.582349 140661183817536 train.py:69] Starting
I1209 16:50:51.582380 140661183817536 train.py:73] 
Start of epoch 1
683
683
Model: "sequential"
_________________________________________________________________
 Layer (type)                Output Shape              Param #   
=================================================================
 conv2d (Conv2D)             (None, 256, 256, 64)      1792      
                                                                 
 batch_normalization (BatchN  (None, 256, 256, 64)     256       
 ormalization)                                                   
                                                                 
 dropout (Dropout)           (None, 256, 256, 64)      0         
                                                                 
 conv2d_1 (Conv2D)           (None, 256, 256, 64)      36928     
                                                                 
 batch_normalization_1 (Batc  (None, 256, 256, 64)     256       
 hNormalization)                                                 
                                                                 
 max_pooling2d (MaxPooling2D  (None, 128, 128, 64)     0         
 )                                                               
                                                                 
 conv2d_2 (Conv2D)           (None, 128, 128, 128)     73856     
                                                                 
 batch_normalization_2 (Batc  (None, 128, 128, 128)    512       
 hNormalization)                                                 
                                                                 
 dropout_1 (Dropout)         (None, 128, 128, 128)     0         
                                                                 
 conv2d_3 (Conv2D)           (None, 128, 128, 128)     147584    
                                                                 
 batch_normalization_3 (Batc  (None, 128, 128, 128)    512       
 hNormalization)                                                 
                                                                 
 max_pooling2d_1 (MaxPooling  (None, 64, 64, 128)      0         
 2D)                                                             
                                                                 
 conv2d_4 (Conv2D)           (None, 64, 64, 256)       295168    
                                                                 
 batch_normalization_4 (Batc  (None, 64, 64, 256)      1024      
 hNormalization)                                                 
                                                                 
 dropout_2 (Dropout)         (None, 64, 64, 256)       0         
                                                                 
 conv2d_5 (Conv2D)           (None, 64, 64, 256)       590080    
                                                                 
 batch_normalization_5 (Batc  (None, 64, 64, 256)      1024      
 hNormalization)                                                 
                                                                 
 dropout_3 (Dropout)         (None, 64, 64, 256)       0         
                                                                 
 conv2d_6 (Conv2D)           (None, 64, 64, 256)       590080    
                                                                 
 batch_normalization_6 (Batc  (None, 64, 64, 256)      1024      
 hNormalization)                                                 
                                                                 
 max_pooling2d_2 (MaxPooling  (None, 32, 32, 256)      0         
 2D)                                                             
                                                                 
 conv2d_7 (Conv2D)           (None, 32, 32, 512)       1180160   
                                                                 
 batch_normalization_7 (Batc  (None, 32, 32, 512)      2048      
 hNormalization)                                                 
                                                                 
 dropout_4 (Dropout)         (None, 32, 32, 512)       0         
                                                                 
 conv2d_8 (Conv2D)           (None, 32, 32, 512)       2359808   
                                                                 
 batch_normalization_8 (Batc  (None, 32, 32, 512)      2048      
 hNormalization)                                                 
                                                                 
 dropout_5 (Dropout)         (None, 32, 32, 512)       0         
                                                                 
 conv2d_9 (Conv2D)           (None, 32, 32, 512)       2359808   
                                                                 
 batch_normalization_9 (Batc  (None, 32, 32, 512)      2048      
 hNormalization)                                                 
                                                                 
 max_pooling2d_3 (MaxPooling  (None, 16, 16, 512)      0         
 2D)                                                             
                                                                 
 conv2d_10 (Conv2D)          (None, 16, 16, 512)       2359808   
                                                                 
 batch_normalization_10 (Bat  (None, 16, 16, 512)      2048      
 chNormalization)                                                
                                                                 
 dropout_6 (Dropout)         (None, 16, 16, 512)       0         
                                                                 
 conv2d_11 (Conv2D)          (None, 16, 16, 512)       2359808   
                                                                 
 batch_normalization_11 (Bat  (None, 16, 16, 512)      2048      
 chNormalization)                                                
                                                                 
 dropout_7 (Dropout)         (None, 16, 16, 512)       0         
                                                                 
 conv2d_12 (Conv2D)          (None, 16, 16, 512)       2359808   
                                                                 
 batch_normalization_12 (Bat  (None, 16, 16, 512)      2048      
 chNormalization)                                                
                                                                 
 max_pooling2d_4 (MaxPooling  (None, 8, 8, 512)        0         
 2D)                                                             
                                                                 
 dropout_8 (Dropout)         (None, 8, 8, 512)         0         
                                                                 
 flatten (Flatten)           (None, 32768)             0         
                                                                 
 dense (Dense)               (None, 4096)              134221824 
                                                                 
 batch_normalization_13 (Bat  (None, 4096)             16384     
 chNormalization)                                                
                                                                 
 flatten_1 (Flatten)         (None, 4096)              0         
                                                                 
 dense_1 (Dense)             (None, 4096)              16781312  
                                                                 
 batch_normalization_14 (Bat  (None, 4096)             16384     
 chNormalization)                                                
                                                                 
 flatten_2 (Flatten)         (None, 4096)              0         
                                                                 
 dense_2 (Dense)             (None, 1000)              4097000   
                                                                 
 batch_normalization_15 (Bat  (None, 1000)             4000      
 chNormalization)                                                
                                                                 
 dropout_9 (Dropout)         (None, 1000)              0         
                                                                 
 dense_3 (Dense)             (None, 1)                 1001      
                                                                 
=================================================================
Total params: 169,869,489
Trainable params: 169,842,657
Non-trainable params: 26,832
_________________________________________________________________
Model: "sequential"
_________________________________________________________________
 Layer (type)                Output Shape              Param #   
=================================================================
 conv2d (Conv2D)             (None, 256, 256, 64)      1792      
                                                                 
 batch_normalization (BatchN  (None, 256, 256, 64)     256       
 ormalization)                                                   
                                                                 
 dropout (Dropout)           (None, 256, 256, 64)      0         
                                                                 
 conv2d_1 (Conv2D)           (None, 256, 256, 64)      36928     
                                                                 
 batch_normalization_1 (Batc  (None, 256, 256, 64)     256       
 hNormalization)                                                 
                                                                 
 max_pooling2d (MaxPooling2D  (None, 128, 128, 64)     0         
 )                                                               
                                                                 
 conv2d_2 (Conv2D)           (None, 128, 128, 128)     73856     
                                                                 
 batch_normalization_2 (Batc  (None, 128, 128, 128)    512       
 hNormalization)                                                 
                                                                 
 dropout_1 (Dropout)         (None, 128, 128, 128)     0         
                                                                 
 conv2d_3 (Conv2D)           (None, 128, 128, 128)     147584    
                                                                 
 batch_normalization_3 (Batc  (None, 128, 128, 128)    512       
 hNormalization)                                                 
                                                                 
 max_pooling2d_1 (MaxPooling  (None, 64, 64, 128)      0         
 2D)                                                             
                                                                 
 conv2d_4 (Conv2D)           (None, 64, 64, 256)       295168    
                                                                 
 batch_normalization_4 (Batc  (None, 64, 64, 256)      1024      
 hNormalization)                                                 
                                                                 
 dropout_2 (Dropout)         (None, 64, 64, 256)       0         
                                                                 
 conv2d_5 (Conv2D)           (None, 64, 64, 256)       590080    
                                                                 
 batch_normalization_5 (Batc  (None, 64, 64, 256)      1024      
 hNormalization)                                                 
                                                                 
 dropout_3 (Dropout)         (None, 64, 64, 256)       0         
                                                                 
 conv2d_6 (Conv2D)           (None, 64, 64, 256)       590080    
                                                                 
 batch_normalization_6 (Batc  (None, 64, 64, 256)      1024      
 hNormalization)                                                 
                                                                 
 max_pooling2d_2 (MaxPooling  (None, 32, 32, 256)      0         
 2D)                                                             
                                                                 
 conv2d_7 (Conv2D)           (None, 32, 32, 512)       1180160   
                                                                 
 batch_normalization_7 (Batc  (None, 32, 32, 512)      2048      
 hNormalization)                                                 
                                                                 
 dropout_4 (Dropout)         (None, 32, 32, 512)       0         
                                                                 
 conv2d_8 (Conv2D)           (None, 32, 32, 512)       2359808   
                                                                 
 batch_normalization_8 (Batc  (None, 32, 32, 512)      2048      
 hNormalization)                                                 
                                                                 
 dropout_5 (Dropout)         (None, 32, 32, 512)       0         
                                                                 
 conv2d_9 (Conv2D)           (None, 32, 32, 512)       2359808   
                                                                 
 batch_normalization_9 (Batc  (None, 32, 32, 512)      2048      
 hNormalization)                                                 
                                                                 
 max_pooling2d_3 (MaxPooling  (None, 16, 16, 512)      0         
 2D)                                                             
                                                                 
 conv2d_10 (Conv2D)          (None, 16, 16, 512)       2359808   
                                                                 
 batch_normalization_10 (Bat  (None, 16, 16, 512)      2048      
 chNormalization)                                                
                                                                 
 dropout_6 (Dropout)         (None, 16, 16, 512)       0         
                                                                 
 conv2d_11 (Conv2D)          (None, 16, 16, 512)       2359808   
                                                                 
 batch_normalization_11 (Bat  (None, 16, 16, 512)      2048      
 chNormalization)                                                
                                                                 
 dropout_7 (Dropout)         (None, 16, 16, 512)       0         
                                                                 
 conv2d_12 (Conv2D)          (None, 16, 16, 512)       2359808   
                                                                 
 batch_normalization_12 (Bat  (None, 16, 16, 512)      2048      
 chNormalization)                                                
                                                                 
 max_pooling2d_4 (MaxPooling  (None, 8, 8, 512)        0         
 2D)                                                             
                                                                 
 dropout_8 (Dropout)         (None, 8, 8, 512)         0         
                                                                 
 flatten (Flatten)           (None, 32768)             0         
                                                                 
 dense (Dense)               (None, 4096)              134221824 
                                                                 
 batch_normalization_13 (Bat  (None, 4096)             16384     
 chNormalization)                                                
                                                                 
 flatten_1 (Flatten)         (None, 4096)              0         
                                                                 
 dense_1 (Dense)             (None, 4096)              16781312  
                                                                 
 batch_normalization_14 (Bat  (None, 4096)             16384     
 chNormalization)                                                
                                                                 
 flatten_2 (Flatten)         (None, 4096)              0         
                                                                 
 dense_2 (Dense)             (None, 1000)              4097000   
                                                                 
 batch_normalization_15 (Bat  (None, 1000)             4000      
 chNormalization)                                                
                                                                 
 dropout_9 (Dropout)         (None, 1000)              0         
                                                                 
 dense_3 (Dense)             (None, 1)                 1001      
                                                                 
=================================================================
Total params: 169,869,489
Trainable params: 169,842,657
Non-trainable params: 26,832
_________________________________________________________________
2022-12-09 16:50:55.713396: E tensorflow/core/grappler/optimizers/meta_optimizer.cc:954] layout failed: INVALID_ARGUMENT: Size of values 0 does not match size of permutation 4 @ fanin shape invgg16/sequential/dropout/dropout/SelectV2-2-TransposeNHWCToNCHW-LayoutOptimizer
…
